…
500/500 [==============================] - 65s 130ms/step - loss: 0.3235 - accuracy: 0.8387 - val_loss: 0.4533 - val_accuracy: 0.8019
Epoch 40/40
499/500 [============================>.] - ETA: 0s - loss: 0.3198 - accuracy: 0.8391 
Epoch 00040: ReduceLROnPlateau reducing learning rate to 8.235429777414538e-05.
500/500 [==============================] - 66s 132ms/step - loss: 0.3196 - accuracy: 0.8393 - val_loss: 0.4660 - val_accuracy: 0.8026
Model: "sequential"
_________________________________________________________________
Layer (type)                 Output Shape              Param #
=================================================================
conv2d (Conv2D)              (None, 224, 224, 32)      896
_________________________________________________________________
max_pooling2d (MaxPooling2D) (None, 112, 112, 32)      0
_________________________________________________________________
dropout (Dropout)            (None, 112, 112, 32)      0
_________________________________________________________________
conv2d_1 (Conv2D)            (None, 112, 112, 64)      18496     
_________________________________________________________________
max_pooling2d_1 (MaxPooling2 (None, 56, 56, 64)        0
_________________________________________________________________
dropout_1 (Dropout)          (None, 56, 56, 64)        0
_________________________________________________________________
conv2d_2 (Conv2D)            (None, 56, 56, 128)       73856
_________________________________________________________________
max_pooling2d_2 (MaxPooling2 (None, 28, 28, 128)       0
_________________________________________________________________
dropout_2 (Dropout)          (None, 28, 28, 128)       0
_________________________________________________________________
flatten (Flatten)            (None, 100352)            0
_________________________________________________________________
dense (Dense)                (None, 128)               12845184
_________________________________________________________________
dropout_3 (Dropout)          (None, 128)               0
_________________________________________________________________
dense_1 (Dense)              (None, 1)                 129
=================================================================
Total params: 12,938,561
Trainable params: 12,938,561
Non-trainable params: 0
_________________________________________________________________
> 83.636
Confusion Matrix
[[279  81]
 [ 27 273]]
Classification Report
              precision    recall  f1-score   support

      Benign       0.91      0.78      0.84       360
   Malignant       0.77      0.91      0.83       300
…
